DL4CV Assignments/A3/one_minute_deepconvnet.pth (torch, 702991 bytes, 8 tensors)

W1 f4 [32, 3, 3, 3]
0.345801 0.02191627 -0.62266403 0.6381225 -0.13554037 -0.12007768 -0.25163972 0.086700864
0.35163656 0.3619152 -0.051699188 -0.2573388 0.18236342 -0.26294413 -0.4956997 0.49777082
-0.3832497 -0.17465223 0.43183967 -0.009632143 -0.40475005 0.2925678 0.08021542 -0.34087637
0.19510001 0.20566186 -0.2738846 -0.21681644 0.15415743 -0.39326307 -0.4381624 -0.13516486
0.042378213 0.18156105 0.27590954 -0.01434057 0.1607447 0.38395372 0.42449507 -0.622764
0.0074099023 -0.47859085 -0.08369977 -0.075265676 0.42084557 -0.39650518 0.9071495 0.25083134
-0.40316877 0.43370453 -0.601517 -0.027553542 0.24870878 -0.13253213 0.57411987 0.15637182
0.13181114 -0.18622707 -0.1274919 0.44084397 -0.1792096 -0.36261383 -0.44997957 -0.26544955
0.73543227 0.05463307 -0.0058081658 -0.096282735 0.10914986 -0.05798882 -0.25848654 -0.3007638
0.21844262 0.11335058 0.21656036 -0.03950152 0.10359766 -0.021019595 -0.061628763 -0.0071007716
-0.4730949 0.61699164 -0.0144088445 0.019568993 -0.49359503 0.08329628 0.07412428 0.056484085
0.0379444 -0.3208995 -0.12740798 -0.56569976 0.036508515 0.19915347 -0.07292145 0.22109024
0.33643407 0.31024998 -0.13322385 0.77229315 -0.5176743 -0.06886203 -0.43160895 -0.42223722
-0.15623505 0.22059643 -0.06531815 0.5157745 -0.10572484 -0.28487933 -0.06543514 0.18839924
0.18757546 -0.0019710416 0.15015052 -0.326125 0.18436627 -0.0039101862 -0.02101635 0.28395954
-0.29253408 0.19930823 0.36567602 -0.1404095 -0.19228068 -0.07388841 0.35717666 0.19179781
-0.36945873 0.34458622 0.92809945 -0.29437214 -0.44655356 -0.7019298 -0.0845546 -0.60647637
-0.49543977 -0.24945612 -0.31053463 -0.07121579 0.34397462 0.58059824 0.1833839 0.48953328
-0.096719705 -0.2680899 -0.41576648 -0.33498162 0.24317497 0.26774192 0.096786685 0.55341375
-0.2059541 -0.18468384 -0.14529364 0.19660236 0.4094539 0.6238315 0.13352941 0.2789387
-0.37970343 -0.53219527 -0.44007984 0.59834003 0.3012555 -0.016181355 -0.095111765 -0.57155126
0.38393384 -0.118564785 0.0003760733 -0.2601879 0.4246861 -0.0088603245 -0.040071003 -0.56572586
-0.14716546 -0.027016621 0.15295722 0.37598836 -0.15620965 0.43476808 0.22905606 0.22607045
-0.35753036 -0.80099 0.34967175 -0.41394603 0.5529035 0.27834493 0.32112455 0.013058829
0.48225302 0.15551212 -0.18154654 0.089211844 -0.051361397 -0.58894044 -0.30209073 0.24086262
-0.13514565 0.15572034 0.06920324 0.06306436 -0.4109439 -0.02963129 -0.29677916 -0.697956
0.19140086 -0.03236523 -0.3485737 0.70787984 -0.12672094 -0.44342944 0.5404917 -0.1416919
-0.22171944 -0.4136901 0.06620911 -0.50874686 0.34038302 -0.24310744 0.04519942 0.27208132
-0.006085675 0.56379133 0.5681012 0.7500425 -0.18949199 0.3201428 0.00041561105 0.22657526
-0.3125814 0.20566875 0.08967461 -0.011590118 -0.44785523 0.28637674 -0.33720016 -0.18342516
-0.1620793 -0.720564 -0.15020917 -0.0073384247 -0.12761356 -0.06631705 -0.1986196 0.13043654
0.33564323 -0.44026166 0.19901122 0.42050186 -0.5167168 -0.4152169 0.14181606 0.11594934
00000000: d40c b13e c089 b33c e966 1fbf ff5b 233f
00000010: 18cb 0abe 49eb f5bd ecd6 80be 3990 b13d
00000020: b509 b43e f34c b93e 87c2 53bd e9c1 83be
00000030: 7abd 3a3e 9da0 86be 5acc fdbe d1db fe3e
00000040: 4e39 c4be 09d8 32be 171a dd3e 23d0 1dbc
00000050: 663b cfbe 72cb 953e fb47 a43d 5987 aebe
00000060: 4cc8 473e 0699 523e 9a3a 8cbe 2105 5ebe
00000070: 72db 1d3e c759 c9be d256 e0be a868 0abe
00000080: c794 2d3d 24eb 393e 0444 8d3e b6f4 6abc
00000090: 429a 243e 9595 c43e 6b57 d93e 766d 1fbf
000000a0: c4ce f23b dc09 f5be c96a abbd e424 9abd
000000b0: 1279 d73e ba02 cbbe f33a 683f f76c 803e
000000c0: 236c cebe 850e de3e 05fd 19bf f7b7 e1bc
000000d0: 84ad 7e3e 81b6 07be 85f9 123f ef1f 203e
000000e0: 80f9 063e 4fb2 3ebe 3d8d 02be 4db6 e13e
000000f0: b982 37be 85a8 b9be b963 e6be 01e9 87be
00000100: 4a45 3c3f edc6 5f3d 6d52 bebb e22f c5bd
00000110: f689 df3d af85 6dbd 5958 84be b6fd 99be
00000120: 6caf 5f3e 5924 e83d 00c2 5d3e 59cc 21bd
00000130: 032b d43d 4931 acbc 716e 7cbd 97ad e8bb
00000140: 7f39 f2be 2af3 1d3f 1313 6cbc 274f a03c
00000150: 7db8 fcbe 3d97 aa3d 78ce 973d db5b 673d
00000160: 966b 1b3d f04c a4be 3d77 02be b3d1 10bf
00000170: f489 153d e3ee 4b3e d757 95bd 7b65 623e
00000180: 1641 ac3e 16d9 9e3e d56b 08be 01b5 453f
00000190: 4e86 04bf 8907 8dbd d9fb dcbe 7a2f d8be
000001a0: 15fc 1fbe 08e4 613e 86c5 85bd cc09 043f
000001b0: 4486 d8bd b4db 91be dc02 86bd bbeb 403e
000001c0: c813 403e 972c 01bb 0fc1 193e dbf9 a6be
000001d0: 83ca 3c3e 0521 80bb 7b2a acbc 2563 913e
000001e0: 07c7 95be 7517 4c3e e339 bb3e 82c7 0fbe
000001f0: 3ae5 44be cf52 97bd dcdf b63e a566 443e
00000200: b229 bdbe 9b6d b03e ed97 6d3f f2b7 96be
00000210: aba2 e4be acb1 33bf f62a adbd 0942 1bbf
00000220: 48aa fdbe 6d71 7fbe 65fe 9ebe 96d9 91bd
00000230: 711d b03e 16a2 143f fdc8 3b3e 1ba4 fa3e
00000240: fb14 c6bd 1443 89be 58df d4be b682 abbe
00000250: dc02 793e 7815 893e 1938 c63d 86ac 0d3f
00000260: a2e5 52be c31d 3dbe dbc7 14be 2152 493e
00000270: f1a3 d13e 6cb3 1f3f efbb 083e 0ed1 8e3e
00000280: 7d68 c2be f33d 08bf 2552 e1be d02c 193f
00000290: 293e 9a3e c38e 84bc f5c9 c2bd 2f51 12bf
000002a0: fa92 c43e 18d2 f2bd b42b c539 5937 85be
000002b0: 7570 d93e e52a 11bc 7e21 24bd 69d3 10bf
000002c0: 8bb2 16be f651 ddbc d1a0 1c3e 8c81 c03e
000002d0: 6cf5 1fbe ec99 de3e ac8d 6a3e 037f 673e
000002e0: 380e b7be ae0d 4dbf 2d08 b33e bcf0 d3be
000002f0: 158b 0d3f 3a83 8e3e 706a a43e b3f4 553c
00000300: dee9 f63e 923e 1f3e 56e7 39be b3b4 b63d
00000310: 5460 52bd cdc4 16bf a3ab 9abe b1a4 763e
00000320: 9f63 0abe 2775 1f3e 6eba 8d3d e327 813d
00000330: 3d67 d2be 52bd f2bc 70f3 97be 3fad 32bf
00000340: 96fe 433e 6791 04bd 4178 b2be 9d37 353f
00000350: 22c3 01be 2f09 e3be aa5d 0a3f ae17 11be
00000360: 6c0a 63be 30cf d3be a498 873d 3c3d 02bf
00000370: af46 ae3e 28f1 78be 0723 393d 3e4e 8b3e
00000380: 586a c7bb a154 103f 156f 113f c902 403f
00000390: 300a 42be c2e9 a33e 5fe6 d939 5803 683e
000003a0: ab0a a0be d49a 523e 52a7 b73d 7ae4 3dbc
000003b0: 484d e5be f99f 923e 80a5 acbe ced3 3bbe
000003c0: 1ef8 25be e276 38bf 6fd0 19be 2b77 f0bb
000003d0: 21ad 02be 3cd1 87bd f062 4bbe 2891 053e
000003e0: 6ed9 ab3e fa69 e1be 99c9 4b3e 054c d73e
000003f0: 8d47 04bf 4f97 d4be 3b38 113e d976 ed3d

b1 f4 [32]
-0.032496512 -0.005241605 -0.06130666 0.0283232 -0.029503398 -0.08469487 -0.012503506 -0.09444656
0.008464831 -0.20818716 -0.023779118 -0.05678448 -0.0054774685 -0.0044849156 -0.017354023 -0.0060546473
0.00083489134 -0.13688065 -0.03713857 -0.022002768 -0.15927362 -0.027165461 -0.024747526 -0.04108367
-0.010530089 -0.0010397051 -0.12528679 -0.079468705 -0.0024040067 -0.2086334 -0.032905165 -0.043977216
00000000: 101b 05bd c5c1 abbb b11c 7bbd 0e06 e83c
00000010: 1cb1 f1bc 8174 adbd 81db 4cbc 336d c1bd
00000020: 13b0 0a3c 042f 55be 6dcc c2bc d896 68bd
00000030: 567c b3bb 33f6 92bb 062a 8ebc 1066 c6bb
00000040: 9cdc 5a3a 712a 0cbe 9d1e 18bd 263f b4bc
00000050: a018 23be 1a8a debc 53bb cabc 5a47 28bd
00000060: 6586 2cbc b746 88ba 2e4b 00be 7dc0 a2bd
00000070: 8a8c 1dbb fea3 55be 91c7 06bd 7421 34bd

W2 f4 [64, 32, 3, 3]
0.18173602 -0.12665084 -0.25395098 0.23366125 0.15284249 -0.33015102 -0.030094784 0.1386693
-0.09376311 -0.0027419005 -0.013626294 0.10956977 -0.090877295 0.04066142 -0.055767443 -0.04711701
0.09374508 0.19599116 -0.13963348 0.07184983 0.05114508 -0.06487777 -0.16636738 0.014729188
-0.1853754 -0.08100306 -0.10968916 -0.003598636 -0.0870307 -0.24905428 -0.10289981 0.2679323
-0.13039072 -0.06011987 0.24815132 -0.0029442003 -0.22355145 -0.05339906 0.028683092 -0.1540392
-0.14052485 0.11203852 -0.072223045 0.0023030469 0.061248034 0.1617563 -0.018982843 -0.019546857
-0.116489224 -0.05662262 -0.0018966936 -0.05787928 -0.0034710362 -0.0018799532 -0.032238945 0.0918489
-0.21280281 0.010293155 -0.046981715 -0.10559102 -0.111849554 -0.06708472 0.020818463 0.21610217
0.017984906 -0.19962327 0.10108058 0.051526327 -0.10524382 0.10042855 -0.022460341 0.008721919
-0.1960693 -0.02358538 0.07754747 -0.12419585 -0.09076824 -0.00028207566 0.0041023768 -0.17510834
0.060831193 0.22254288 -0.17029035 0.07201506 0.07421873 -0.010675863 -0.05672836 0.07427321
-0.12133065 -0.19773373 -0.060176305 -0.018769229 -0.22002082 -0.007985728 0.08692189 -0.05616289
0.045098793 0.012606072 -0.023954554 0.0006694599 0.14266562 -0.040715273 0.1913462 0.22722743
0.062283725 0.10024399 0.020236593 0.042531505 0.13204189 -0.13620695 -0.19831821 0.18600725
0.058457434 -0.23038715 0.04145901 0.17746247 -0.10895583 0.0572877 -0.020486386 0.013962751
0.048510622 0.035960153 0.06452806 0.004956383 0.20376945 -0.25288263 0.07269603 0.06618211
0.05565129 -0.18825845 -0.02530463 -0.17733127 -0.07670861 -0.14560425 -0.17172536 -0.017010942
-0.12419729 -0.20525557 -0.01373507 0.0023671612 -0.086277805 0.017046645 0.08303206 -0.12992045
-0.009348293 0.08184088 -0.07095225 -0.038308058 0.07565026 -0.0126984045 -0.039936915 0.04445922
-0.08164611 0.14105797 0.051418 -0.19444177 0.09187154 0.041590277 -0.15326709 -0.06354457
0.07817137 -0.21747701 0.105005056 -0.1447747 -0.22377014 0.22087523 0.23586303 -0.2309119
0.032392755 0.055966195 -0.10974203 -0.040524572 -0.11600665 -0.06666267 -0.14858499 0.040011216
-0.016295196 -0.1313957 -0.02984451 -0.15274172 -0.13219288 0.020962497 -0.0055670026 0.021677561
0.20348555 0.032156687 0.16669768 0.00469888 -0.008529277 0.17907481 -0.123955764 -0.0663939
0.19697106 0.1448914 -0.08188596 -0.04184397 0.24345212 -0.088421024 0.04874034 0.071253344
0.07195257 -0.07832581 0.05433925 0.05563267 -0.071353525 -0.048478816 0.045673635 0.07530097
-0.07919117 -0.0063496144 0.07372754 0.046975113 0.015134903 -0.16680586 -0.027448462 0.036085773
0.14295277 0.08066748 0.11381274 0.06367421 -0.06837719 -0.009317653 -0.102808416 -0.08811728
-0.04420062 -0.10353877 -0.1158741 0.0064432356 0.085600875 0.044955093 0.12620759 0.19485907
-0.15768616 0.12687074 -0.077027075 -0.004679059 -0.18538873 -0.012418713 0.03190288 -0.09324454
-0.03317204 0.12940592 0.04473945 -0.015079649 0.048992228 0.119567566 -0.0149099 -0.027191998
0.08125435 0.026012914 -0.02043683 0.012500851 0.2622307 -0.105030045 -0.17066026 0.26363698
00000000: 0219 3a3e c2b0 01be dd05 82be e544 6f3e
00000010: be82 1c3e 8e09 a9be 5689 f6bc 53ff 0d3e
00000020: e006 c0bd 75b1 33bb d240 5fbc 1e66 e03d
00000030: e01d babd 978c 263d 676c 64bd c4fd 40bd
00000040: 6cfd bf3d e8b1 483e 14fc 0ebe 0126 933d
00000050: 817d 513d a3de 84bd 365c 2abe b152 713c
00000060: 0dd3 3dbe efe4 a5bd b6a4 e0bd 18d7 6bbb
00000070: 273d b2bd 1608 7fbe 23bd d2bd 6c2e 893e
00000080: 2585 05be 4140 76bd 611b 7e3e 7cf3 40bb
00000090: acea 64be f9b8 5abd cef8 ea3c 74bc 1dbe
000000a0: bfe5 0fbe 7474 e53d ade9 93bd b7ee 163b
000000b0: 38df 7a3d 72a3 253e e881 9bbc bb20 a0bc
000000c0: e791 eebd 1fed 67bd 7a9a f8ba d312 6dbd
000000d0: 537a 63bb c368 f6ba fc0c 04bd 471b bc3d
000000e0: fbe8 59be 9fa4 283c e66f 40bd 1b40 d8bd
000000f0: 6111 e5bd b763 89bd 7b8b aa3c e349 5d3e
00000100: 1555 933c 0b6a 4cbe 5603 cf3d 450d 533d
00000110: 128a d7bd 7cad cd3d c0fe b7bc 61e6 0e3c
00000120: 64c6 48be 2036 c1bc 35d1 9e3d 655a febd
00000130: b3e4 b9bd 8ee3 93b9 3b6d 863b 9a4f 33be
00000140: 212a 793d 48e2 633e 9860 2ebe a27c 933d
00000150: fdff 973d d1e9 2ebc ff5b 68bd 8d1c 983d
00000160: 347c f8bd b67a 4abe 6e7b 76bd edc1 99bc
00000170: 234d 61be 92d6 02bc 1b04 b23d 0f0b 66bd
00000180: 83b9 383d b389 4e3c 573c c4bc b27e 2f3a
00000190: f016 123e 0fc5 26bd 42f0 433e 4fae 683e
000001a0: 381d 7f3d b94c cd3d 36c7 a53c 8435 2e3d
000001b0: fd35 073e d679 0bbe ee13 4bbe af78 3e3e
000001c0: 1071 6f3d 9cea 6bbe ecd0 293d b9b8 353e
000001d0: 3c24 dfbd 82a6 6a3d 11d3 a7bc 06c4 643c
000001e0: 13b3 463d f44a 133d 4a27 843d 2769 a23b
000001f0: f0a8 503e d579 81be a8e1 943d 7c8a 873d
00000200: 9bf2 633d d3c6 40be a84b cfbc 5496 35be
00000210: 6719 9dbd 4819 15be c6d8 2fbe 885a 8bbc
00000220: 265b febd 842e 52be 0f09 61bc 6022 1b3b
00000230: 6bb2 b0bd 68a5 8b3c b60c aa3d de09 05be
00000240: 9529 19bc 319c a73d 6a4f 91bd e9e8 1cbd
00000250: 86ee 9a3d f80c 50bc e494 23bd df1a 363d
00000260: 1336 a7bd 8071 103e ae9b 523d be1b 47be
00000270: 2527 bc3d 915a 2a3d 0cf2 1cbe a823 82bd
00000280: 5018 a03d 4bb2 5ebe e40c d73d d23f 14be
00000290: 0024 65be 1e2d 623e 1486 713e 2b74 6cbe
000002a0: 44ae 043d cf3c 653d 6ec0 e0bd 18fd 25bd
000002b0: e594 edbd 7086 88bd aa26 18be cde2 233d
000002c0: 817d 85bc 988c 06be 797c f4bc 5368 1cbe
000002d0: 925d 07be 8bb9 ab3c 676b b6bb 2495 b13c
000002e0: 845e 503e bbb6 033d ccb2 2a3e 10f9 993b
000002f0: 61be 0bbc 635f 373e 85dc fdbd 86f9 87bd
00000300: c8b2 493e 695e 143e d4b3 a7bd 9564 2bbd
00000310: 834b 793e 1516 b5bd f3a3 473d 46ed 913d
00000320: de5b 933d 4869 a0bd d592 5e3d 15df 633d
00000330: cc21 92bd b991 46bd 4714 3b3d 6537 9a3d
00000340: fb2e a2bd 6d10 d0bb 77fe 963d fa68 403d
00000350: 62f8 773c 28cf 2abe 99db e0bc adce 133d
00000360: 3662 123e fe34 a53d a716 e93d a067 823d
00000370: 5709 8cbd 12a9 18bc 388d d2bd d576 b4bd
00000380: b60b 35bd 220c d4bd 664f edbd c721 d33b
00000390: 834f af3d d522 383d 903c 013e 2389 473e
000003a0: 7b78 21be 67ea 013e 5fc0 9dbd cb52 99bb
000003b0: 8bd6 3dbe dc77 4bbc 98ac 023d fef6 bebd
000003c0: 68df 07bd fc82 043e b740 373d a210 77bc
000003d0: 13ac 483d d7df f43d a748 74bc c1c1 debc
000003e0: ae68 a63d 0919 d53c 246b a7bc 5fd0 4c3c
000003f0: 1a43 863e fe19 d7bd 90c1 2ebe 6dfb 863e

b2 f4 [64]
-0.18493241 0.20599778 0.016318787 -0.118191816 0.17452563 0.0049008625 -0.15138333 -0.024874322
0.2949458 -0.102816395 -0.14526412 0.08905955 -0.0683323 0.18938518 0.02764967 0.19642697
-0.040231016 -0.09623089 -0.0060250317 -0.116562955 0.23279329 -0.020660449 -0.2137608 0.13455087
-0.016111188 -0.2001237 -0.13557647 -0.053958185 -0.1785093 0.34610346 -0.02003168 -0.14245693
-0.036996663 -0.035865486 0.081203915 0.13456777 -0.25104243 0.033310115 0.19251978 -0.05043058
0.010727317 -0.05828878 -0.051317986 0.05125142 0.10290294 -0.11627658 0.062652186 -0.0927986
-0.037614737 -0.031070936 -0.1119179 -0.04154794 0.0010042683 -0.05545242 -0.03144216 -0.1061081
-0.07098734 -0.30051488 -0.089032404 -0.13728015 -0.028709905 -0.11393204 -0.060397733 0.016506352
00000000: ec5e 3dbe 15f1 523e faae 853c 8d0e f2bd
00000010: d9b6 323e 6a97 a03b 3b04 1bbe 3cc5 cbbc
00000020: 2303 973e 6791 d2bd 1ec0 14be da64 b63d
00000030: cef1 8bbd 30ee 413e 9081 e23c 2724 493e
00000040: 47c9 24bd b314 c5bd a16d c5bb 8fb8 eebd
00000050: 5d61 6e3e 1a40 a9bc 1ce4 5abe b4c7 093e
00000060: 9cfb 83bc 3aed 4cbe 8fd4 0abe 4203 5dbd
00000070: 24cb 36be 7934 b13e 7a19 a4bc 3be0 11be
00000080: d089 17bd b0e7 12bd 3d4e a63d 22cc 093e
00000090: a288 80be 3070 083d e823 453e 4c90 4ebd
000000a0: a1c1 2f3c 37c0 6ebd cf32 52bd 02ed 513d
000000b0: c7be d23d 6a22 eebd ca4f 803d 310d bebd
000000c0: e911 1abd 7a88 febc 3635 e5bd 2c2e 2abd
000000d0: a7a1 833a 1422 63bd 7fc9 00bd 344f d9bd
000000e0: cf61 91bd 16dd 99be 9f56 b6bd 2b93 0cbe
000000f0: 0931 ebbc 3455 e9bd 9d63 77bd 5438 873c

W3 f4 [128, 64, 3, 3]
-0.010228058 -0.009373752 -0.004256677 -0.014174006 -0.009555916 -0.0037534344 -0.004938452 -0.012031097
-0.004442055 -0.0020228077 -0.004041648 -0.0014627619 -0.0058394894 -0.0065825167 -0.0014371185 -0.0028665906
-0.003793611 -0.0013584833 4.263334e-05 0.00012827141 8.724898e-05 0.00085992133 0.00030091507 -0.00015378845
-0.00033502115 -0.0011957837 -0.00092955615 -0.00132546 -0.002562764 -0.0013237438 -0.0025293273 -0.0030122239
-0.0020835698 -0.0018694435 -0.0013019808 -0.0014870451 -0.00011622128 -0.00051416806 -0.00036095467 -0.00087174296
-0.0025346435 -0.0018237222 -6.906627e-05 -0.0015003588 -0.0012857135 0.00138643 0.00087921764 0.00033368779
0.0041788192 0.0011196572 -0.00022759967 0.00036321275 -0.0004920237 0.0006633418 -0.002515037 -0.005865994
-0.0016191975 -0.005603871 -0.010773002 -0.003584541 -0.0065579168 -0.0057677166 -0.004668217 -1.336361e-39
6.25454e-40 -8.01562e-40 -2.85848e-40 -2.26256e-40 2.95367e-40 -7.3956e-41 4.59019e-40 -2.8169e-40
-0.0031081794 -0.00043087802 0.009827814 0.0038796477 0.004099814 0.0056715515 0.0016456322 -0.0026005565
0.010667567 -0.010311888 -0.004507467 -0.0021822047 -0.0017530785 -0.009217192 -0.013123574 -0.0047040023
0.001625216 0.011086997 -0.014629086 -0.0231942 -0.008559823 -0.017509528 -0.028948028 -0.007258903
-0.013789408 -0.021774719 -0.002712591 -0.0053517018 -0.0043867636 -0.0026090709 -0.009038176 -0.00567543
-0.0020665717 -0.0059608268 -0.005260453 -0.0017659356 -0.0031273735 -0.0018465102 -0.00034439145 -0.0031421906
-0.0055341045 -0.0006927661 -0.0035809064 -0.004159346 0.0011067737 -1.3386229e-05 -3.757011e-05 -5.0792656e-05
-0.00015001379 -9.927211e-05 -1.1888022e-05 -0.00036022422 -0.0006027884 -6.080507e-05 -0.0026277648 0.00016893934
-0.0005997269 -0.0011825338 -0.00011506139 -0.0006481875 0.0038310096 -0.001374464 -0.0016520609 -0.000849596
-0.010259375 -0.0005641587 -0.00252036 -0.010246045 -0.0013910268 -0.0012688638 -0.010725575 -0.00056145596
-7.8997186e-07 7.5439607e-07 1.0159173e-06 -2.5117752e-05 7.525648e-06 -2.5421728e-06 -3.7552134e-06 -3.6952704e-05
-3.746914e-05 -3.5021174e-14 -6.0586852e-12 -6.1050665e-14 1.9820423e-10 1.6686533e-08 -1.7783954e-09 9.65975e-40
-7.554896e-30 1.248958e-39 -0.0019764497 -0.00199081 -0.0012564897 -0.0024520217 -0.003076594 -0.0016630448
-0.0012783456 -0.001868703 -0.0012118013 -0.009919772 -0.014134539 -0.007358494 -0.009620433 -0.016309904
-0.005762707 -0.004769185 -0.008342642 -0.00366152 -0.00021511878 -0.0006493103 -0.00030272387 -0.0005144633
-0.0010977564 -0.00067260046 -0.0002922695 -0.00042209472 -0.00035218103 -0.0004845891 -0.0027478056 -0.0024110437
-0.0002383029 -0.0065209833 -0.0034940974 -0.001061163 -0.0026306035 0.0009521339 -0.0011530747 -0.00169363
-0.0004902678 -0.002444935 -0.0024017869 7.126327e-05 -0.001268872 -0.0019652273 -0.0011354464 -0.0024213297
-0.0014863433 -0.00075855025 -0.0038550436 -0.0024873796 -0.0011026432 -0.004391867 -0.0014961611 -0.0003592565
-0.0063339383 -0.0079417415 -0.007050565 -0.008304217 -0.008616721 -0.004142361 -0.006767615 -0.005857216
-0.0039733024 -0.01408234 -0.012006826 -0.0035624178 -0.016370904 -0.011841198 -0.008723595 -0.016321937
-0.010961874 0.00012611186 -0.008855332 -0.0080019785 -0.0049400497 -0.008587651 -0.0072302064 -0.005623456
-0.0058420757 -0.007592227 -0.006293298 -0.0016375403 -0.002316736 -0.0012560243 -0.0022911406 -0.0018064362
-0.0005649698 -0.0010435996 -0.0008401527 -0.0003432472 -0.0041596675 -0.007443632 -0.0041619265 -0.0068052136
00000000: 9693 27bc 5e94 19bc 987b 8bbb 173a 68bc
00000010: 6b90 1cbc 2efc 75bb bdd2 a1bb 141e 45bc
00000020: a88e 91bb 1591 04bb cd6f 84bb 25ba bfba
00000030: 3059 bfbb 27b2 d7bb b25d bcba 69dd 3bbb
00000040: 3b9e 78bb 230f b2ba 33d1 3238 9880 0639
00000050: 71f9 b638 586c 613a 23c4 9d39 4642 21b9
00000060: c7a5 afb9 d8bb 9cba 75ad 73ba 0fbb adba
00000070: 0cf4 27bb 7981 adba 12c3 25bb bb68 45bb
00000080: 808c 08bb 1d08 f5ba 3aa7 aaba f4e8 c2ba
00000090: d3bb f3b8 3cc9 06ba 843e bdb9 ae85 64ba
000000a0: 431c 26bb f609 efba acd7 90b8 b0a7 c4ba
000000b0: 6385 a8ba dfb8 b53a 4c7b 663a d1f2 ae39
000000c0: 7aee 883b 76c1 923a d2a7 6eb9 976d be39
000000d0: 27fb 00ba 1de4 2d3a 52d3 24bb 8637 c0bb
000000e0: 413b d4ba ada0 b7bb 3f81 30bc 9eea 6abb
000000f0: cbe3 d6bb 1dff bcbb d8f7 98bb 3b8d 0e80
00000100: 83cf 0600 6eba 0880 d41c 0380 b676 0280
00000110: 5d37 0300 29ce 0080 8fff 0400 3d11 0380
00000120: 99b2 4bbb 78e7 e1b9 d704 213c b041 7e3b
00000130: bc57 863b 6cd8 b93b 41b2 d73a 196e 2abb
00000140: 05c7 2e3c 31f3 28bc 60b3 93bb 5203 0fbb
00000150: 8ec7 e5ba b503 17bc 4204 57bc 0824 9abb
00000160: 3305 d53a 3ca6 353c d5ae 6fbc c301 bebc
00000170: 803e 0cbc 2470 8fbc 6a24 edbc 17dc edbb
00000180: f8ec 61bc e560 b2bc bac5 31bb 545d afbb
00000190: d7be 8fbb f2fc 2abb dc14 14bc f5f8 b9bb
000001a0: 526f 07bb 0a53 c3bb e15f acbb f776 e7ba
000001b0: 9ff4 4cbb 9a06 f2ba 708f b4b9 36ed 4dbb
000001c0: 6f57 b5bb bf9a 35ba a4ad 6abb 204b 88bb
000001d0: 2a11 913a 6a95 60b7 9994 1db8 330a 55b8
000001e0: 054d 1db9 4f30 d0b8 aa72 47b7 7adc bcb9
000001f0: 7204 1eba f208 7fb8 9436 2cbb 4f25 3139
00000200: fe36 1dba 40ff 9aba 1d4d f1b8 20eb 29ba
00000210: ad11 7b3b 5c27 b4ba f789 d8ba 6cb7 5eba
00000220: f016 28bc 0de4 13ba a02c 25bb 07df 27bc
00000230: 1d53 b6ba 0150 a6ba 52ba 2fbc ac2e 13ba
00000240: 740e 54b5 b481 4a35 a75a 8835 f6b3 d2b7
00000250: d384 fc36 329a 2ab6 1302 7cb6 aafd 1ab8
00000260: 2f28 1db8 aab8 1da9 c92b d5ac 5079 89a9
00000270: 88ed 592f 1356 8f32 ba6b f4b0 bf84 0a00
00000280: 433b 198f 9699 0d00 5387 01bb 4078 02bb
00000290: ccb0 a4ba 19b2 20bb afa0 49bb 86fa d9ba
000002a0: 298e a7ba 45ef f4ba 4ed5 9eba 8a86 22bc
000002b0: 8e94 67bc 861f f1bb 059f 1dbc 599c 85bc
000002c0: 17d5 bcbb d346 9cbb 94af 08bc 1df6 6fbb
000002d0: 8291 61b9 7a36 2aba e9b6 9eb9 0cdd 06ba
000002e0: 98e2 8fba 7451 30ba c03b 99b9 984c ddb9
000002f0: f0a4 b8b9 7310 feb9 8714 34bb 9a02 1ebb
00000300: f3e0 79b9 f9ad d5bb 3afd 64bb b916 8bba
00000310: 3466 2cbb a098 793a c422 97ba cbfc ddba
00000320: 5185 00ba 343b 20bb 4c67 1dbb 2d73 9538
00000330: 4750 a6ba 0bcb 00bb 42d3 94ba 2caf 1ebb
00000340: 68d1 c2ba 72d9 46ba e6a4 7cbb 4e03 23bb
00000350: 9186 90ba a7e9 8fbb d61a c4ba 975a bcb9
00000360: ed8c cfbb 141e 02bc 6d08 e7bb 690e 08bc
00000370: 262d 0dbc a5bc 87bb dfc2 ddbb e4ed bfbb
00000380: 7a32 82bb 9db9 66bc 47b8 44bc 7477 69bb
00000390: 461c 86bc 9601 42bc 69ed 0ebc 95b5 85bc
000003a0: 6f99 33bc e53c 0439 f415 11bc bb1a 03bc
000003b0: 24e0 a1bb 38b3 0cbc 5eeb ecbb f844 b8bb
000003c0: e26e bfbb 37c8 f8bb 0338 cebb bca2 d6ba
000003d0: 61d4 17bb 2fa1 a4ba f626 16bb f1c5 ecba
000003e0: 7b1a 14ba 64c9 88ba b13d 5cba dcf5 b3b9
000003f0: d24d 88bb b6e9 f3bb c560 88bb 45fe debb

b3 f4 [128]
-0.06438475 0.05546045 0.11480428 0.07971689 0.23181967 0.15193006 -0.019051889 -0.040036593
0.06129102 0.09921963 -0.11986371 -0.056153048 0.019403225 -0.0974824 -0.041421235 -0.100140676
-0.03968325 -0.066950634 0.043684628 0.15261054 -0.0794691 0.041550376 0.08140209 -0.04743851
-0.03340483 0.026972022 -0.0022408385 0.04144561 -0.030268323 -0.02782797 0.08504527 -0.01622228
-0.07439713 -0.056107428 0.008992484 0.07464637 0.002023573 -0.033103913 0.25141624 0.03163222
-0.05403658 0.12784769 -0.040412992 0.2069062 0.045962088 -0.12254114 -0.100550376 0.06307163
-0.0351073 0.053734887 0.039761923 -0.052166764 0.12749843 0.17828111 -0.04040327 0.20699856
-0.06322087 -0.12491299 -0.02679739 -0.11220206 -0.084926546 0.20389166 -0.098219305 -0.055648822
0.0692775 0.021506058 0.18077767 0.079429775 -0.02680461 -0.03260283 -0.02892995 -0.04735069
-0.074186556 0.06621448 0.00047347642 0.05928219 0.1602301 -0.039402165 0.28545147 -0.04383725
-0.013540303 0.06757294 -0.057725225 -0.108780645 0.23685387 0.3331521 -0.22370666 -0.0027139487
0.17138013 -0.07969193 0.034006268 0.090695925 -0.011920935 0.07586258 -0.10429095 0.0028318332
0.041250076 -0.11585327 0.08940837 0.03711181 -0.030386819 -0.066538006 0.15752739 -0.03290254
-0.031807568 0.28448814 -0.052311882 -0.033562366 0.06415915 0.19706462 -0.13321972 0.01437612
-0.09840845 0.072043024 -0.15362008 0.14140958 -0.051716417 -0.060772993 0.030532476 -0.10028888
0.09080894 -0.034009065 0.19810821 -0.060262356 -0.029969424 -0.036855746 -0.030430827 -0.17123032
00000000: 27dc 83bd 7f2a 633d 821e eb3d 9c42 a33d
00000010: 2362 6d3e 8e93 1b3e b512 9cbc 69fd 23bd
00000020: 4b0c 7b3d a933 cb3d 1b7b f5bd bd00 66bd
00000030: 83f3 9e3c daa4 c7bd 50a9 29bd 8e16 cdbd
00000040: e78a 22bd 6a1d 89bd a7ee 323d f045 1c3e
00000050: b2c0 a2bd ba30 2a3d 24b6 a63d e24e 42bd
00000060: 81d3 08bd 6ef4 dc3c 08db 12bb dfc2 293d
00000070: 46f5 f7bc 7cf7 e3bc 372c ae3d 96e4 84bc
00000080: 865d 98bd e7d0 65bd 3655 133c 32e0 983d
00000090: ec9d 043b f897 07bd a1b9 803e c990 013d
000000a0: 7655 5dbd 81ea 023e 1888 25bd 38df 533e
000000b0: be42 3c3d d9f6 fabd 5bed cdbd b32b 813d
000000c0: accc 0fbd 1d19 5c3d 66dd 223d d1ac 55bd
000000d0: f38e 023e 538f 363e e67d 25bd 6ef7 533e
000000e0: f279 81bd 62d2 ffbd 3386 dbbc 32ca e5bd
000000f0: f8ed adbd fac8 503e 3427 c9bd 05f0 63bd
00000100: 5de1 8d3d 792d b03c c81d 393e 14ac a23d
00000110: 5795 dbbc 8c8a 05bd 81fe ecbc ccf2 41bd
00000120: 1fef 97bd 759b 873d ee3c f839 e2d1 723d
00000130: 5c13 243e 2a64 21bd b226 923e b08e 33bd
00000140: 26d8 5dbc ae63 8a3d 4971 6cbd 63c8 debd
00000150: d289 723e e992 aa3e 5c13 65be 81dc 31bb
00000160: 467e 2f3e 8635 a3bd 284a 0b3d c9be b93d
00000170: 0650 43bc d75d 9b3d 7e96 d5bd 4796 393b
00000180: d7f5 283d 7b44 edbd bc1b b73d 8e02 183d
00000190: c7ed f8bc 1445 88bd dc4e 213e d0c4 06bd
000001a0: a748 02bd 6ea8 913e fc44 56bd b178 09bd
000001b0: df65 833d 4fcb 493e c06a 08be d189 6b3c
000001c0: 5f8a c9bd 4b8b 933d 954e 1dbe accd 103e
000001d0: 98d4 53bd 1aed 78bd 3e1f fa3c 4264 cdbd
000001e0: 0afa b93d 174d 0bbd e1dc 4a3e a9d5 76bd
000001f0: 7082 f5bc 0df6 16bd 124a f9bc 0057 2fbe

W4 f4 [8192, 10]
0.0048770276 0.00013992429 -0.0015344791 0.002731269 0.000556901 -0.001469058 -0.00019416906 0.0027965864
0.0005676113 -0.00054835045 0.0012812425 0.0058155702 -0.0056531113 0.0012310713 -0.0016086039 -7.7881334e-05
0.002878454 0.00021036816 -0.0005759319 -0.0015180686 0.002731438 0.00091069535 0.00045798786 -0.0017599071
-0.0024738302 0.0025810932 0.00044109768 -0.0039420645 8.8254215e-05 0.0004401349 -0.0028285044 0.0013010557
-0.002363222 0.006983844 -0.0021477214 -0.0003800371 1.9981815e-05 -0.0013764926 0.00043261622 0.00013924013
0.001902778 0.0043639527 -0.0016271713 0.00033561268 -0.0024988377 0.0013758562 0.0012829951 -0.00097556406
-0.003026877 -0.0010985038 0.0011728054 0.0020500259 -0.0049063005 -0.0009179441 0.0026773326 0.00019771124
0.0016817941 -0.0009188416 -0.0014341287 -0.00065318594 0.0055798613 0.001003993 -0.009903033 0.00014481593
0.0029071148 0.0031942578 0.0006739037 -0.006901442 0.0018218654 -0.0046472647 0.001193819 0.00041446116
-0.0046067275 0.000976436 -0.00027504665 -7.002342e-05 4.0431816e-05 -0.0002562605 0.0038858184 -0.00019745422
0.002809121 -0.0045827567 -0.0032108403 0.0012689473 0.0021062645 -0.0021677464 -0.0006119274 -0.007598434
-0.001200509 0.0075599784 0.0016022415 0.013001979 -0.03159991 0.0075854794 0.0016295599 0.00016720989
0.017453885 -0.0006465896 -0.005077456 -0.0036127132 0.00019061906 0.0010164466 -0.005216642 -0.003263555
-0.0025057858 0.003964253 0.0037624275 -0.00538349 7.7905526e-05 -0.00011613724 0.0020732486 0.002052952
-0.010896855 0.0038243711 -0.0034672648 0.00067785266 0.0023054637 -0.002945707 0.002016907 5.58763e-05
0.00732305 0.0018727499 -0.01405995 0.00023607434 -0.003688998 0.001956189 0.006591052 0.0047709555
-0.0032495824 -0.0005438234 -1.1809508e-05 0.005029708 -0.0100104725 0.007132732 0.0013804833 -0.0027047873
0.0031209947 0.0064092977 -0.0045621907 -0.0026265504 0.0080015585 0.001660577 -0.02720717 0.005283326
0.0036789784 0.0024268997 0.0029526541 -0.0028934777 0.0020289202 -0.0013850125 0.002231448 0.000122312
-0.02256428 0.0032901433 -0.0011945706 0.0002575967 0.0025071648 3.2524214e-05 0.0069395453 -7.6287455e-05
0.002856297 0.004081003 -0.004911247 0.005976827 -7.01489e-05 -0.0028512222 0.0016608828 -0.0028560027
0.0013325795 3.2330285e-05 -0.0012889827 0.008873486 -0.016816385 0.00028504536 -6.625481e-05 -0.0012322881
0.016039293 -0.0019654643 -0.001966978 -0.0010322343 -0.0044467323 0.0010505574 -0.00019435864 -0.0019288652
-0.002591434 0.0030649896 0.0037606398 -0.0038635707 0.0012667426 -0.0002527165 0.0007040182 0.00015416087
0.00033217776 0.0072204405 -0.0033195096 0.0019252846 0.0007130697 0.00096337165 -0.0011627428 -0.00044341182
-0.0025744466 0.000657904 -0.0020298103 0.00044683428 -0.0022618708 0.0017917152 0.0019234924 0.00067555316
-0.0020937687 -0.0009205526 -0.0018702594 0.006919953 -0.0028983518 0.009031976 -0.0008237355 -0.002857466
0.0016791386 0.00047345363 -0.0060374658 -0.0019200572 0.0015552616 0.001041819 -0.011267142 0.008753431
-0.0010235505 3.4778743e-05 0.0011102536 -0.0009320847 0.00047942798 -2.6196103e-06 0.0016842136 0.00037755253
-0.013595293 0.0026068864 -3.3699027e-05 -4.3445383e-05 0.0017957899 -3.275721e-05 0.002535711 -7.83134e-05
0.0029354955 -0.0033707141 -0.0040950403 0.0053740195 -0.0014254448 -0.0004960617 0.00013798848 -0.006542352
-0.00069029833 -0.00042008745 -0.0015094485 0.004174515 -0.007495708 0.0013300241 -0.0026760814 -0.0004887874
00000000: 79cf 9f3b a4b8 1239 9320 c9ba 17ff 323b
00000010: fefc 113a 688d c0ba dc99 4bb9 ef46 373b
00000020: c0cb 143a 2dbf 0fba 5def a73a 8a90 be3b
00000030: bc3d b9bb e65b a13a cad7 d2ba 3954 a3b8
00000040: 72a4 3c3b 4696 5c39 23fa 16ba eef9 c6ba
00000050: ed01 333b bbbb 6e3a 171e f039 afac e6ba
00000060: fc1f 22bb 8f27 293b 2143 e739 6f2c 81bb
00000070: 1f15 b938 e8c1 e639 6e5e 39bb 2f88 aa3a
00000080: 49e0 1abb bbd8 e43b c9c0 0cbb b73f c7b9
00000090: 9f9e a737 6d6b b4ba c4d0 e239 fd00 1239
000000a0: a366 f93a 7dff 8e3b cf46 d5ba 2cf5 af39
000000b0: 8ac3 23bb 1356 b43a 2c2a a83a ffbc 7fba
000000c0: 925e 46bb acfb 8fba d2b8 993a ba59 063b
000000d0: 08c5 a0bb 30a2 70ba 3076 2f3b b550 4f39
000000e0: a56f dc3a 6ade 70ba 60f9 bbba 913a 2bba
000000f0: 45d7 b63b 6a98 833a 5540 22bc bbd9 1739
00000100: 4b85 3e3b c156 513b e9a8 303a 7e25 e2bb
00000110: a9cb ee3a 1548 98bb eb79 9c3a 094c d939
00000120: 08f4 96bb 83f7 7f3a 2334 90b9 8ad9 92b8
00000130: 5595 2938 b45a 86b9 37a9 7e3b b70b 4fb9
00000140: 3b19 383b f32a 96bb f66c 52bb ce52 a63a
00000150: 4109 0a3b c010 0ebb c169 20ba 49fc f8bb
00000160: 665a 9dba b2b9 f73b 4e02 d23a 4106 553c
00000170: e86e 01bd 9d8f f83b f596 d53a 1055 2f39
00000180: 73fb 8e3c e57f 29ba ca60 a6bb 45c3 6cbb
00000190: eae0 4739 4a3a 853a 5df0 aabb 5ee1 55bb
000001a0: 1c38 24bb 90e6 813b 0f93 763b fd67 b0bb
000001b0: 3661 a338 b58e f3b8 57df 073b d28a 063b
000001c0: b988 32bc 4da2 7a3b 0d3b 63bb ecb1 313a
000001d0: 4317 173b c30c 41bb 162e 043b b85c 6a38
000001e0: 32f6 ef3b 0f77 f53a b45b 66bc b98a 7739
000001f0: 1ec3 71bb 6833 003b c0f9 d73b ad55 9c3b
00000200: f2f6 54bb 5f8f 0eba 7321 46b7 40d0 a43b
00000210: f702 24bc b1b9 e93b 55f1 b43a cd42 31bb
00000220: 9a89 4c3b 1605 d23b 6e7e 95bb 3422 2cbb
00000230: f818 033c b8a7 d93a 92e1 debc c01f ad3b
00000240: 041b 713b 9f0c 1f3b 5181 413b 80a0 3dbb
00000250: a2f7 043b 4f89 b5ba 7c3d 123b e140 0039
00000260: bad8 b8bc 729f 573b 2393 9cba 0b0e 8739
00000270: 3f4f 243b 9c6a 0838 2065 e33b 84fc 9fb8
00000280: b630 3b3b efb9 853b 87ee a0bb 42d9 c33b
00000290: e71c 93b8 92db 3abb fbb1 d93a c62b 3bbb
000002a0: f3a9 ae3a 619a 0738 15f3 a8ba 1962 113c
000002b0: 84c2 89bc 2472 9539 48f2 8ab8 ba84 a1ba
000002c0: d664 833c 05cf 00bb 6ae8 00bb 094c 87ba
000002d0: e5b5 91bb dbb2 893a c0cc 4bb9 fad1 fcba
000002e0: 0cd5 29bb fedd 483b 1175 763b f633 7dbb
000002f0: d408 a63a 097f 84b9 dd8d 383a 3ea6 2139
00000300: 2528 ae39 7299 ec3b 218c 59bb d559 fc3a
00000310: 4ced 3a3a c78a 7c3a 2d67 98ba ba79 e8b9
00000320: 0cb8 28bb 3177 2c3a 9106 05bb 1545 ea39
00000330: e53b 14bb fcd7 ea3a b21d fc3a 9b17 313a
00000340: 9c37 09bb 3d51 71ba 7e23 f5ba c6c0 e23b
00000350: 46f2 3dbb dafa 133c f4ef 57ba 5344 3bbb
00000360: 8b16 dc3a df39 f839 efd5 c5bb 6eaa fbba
00000370: ebd9 cb3a a58d 883a d299 38bc 8d6a 0f3c
00000380: a828 86ba 64df 1138 ee85 913a 2557 74ba
00000390: bc5b fb39 90cc 2fb6 d5c0 dc3a 3ef2 c539
000003a0: cbbe 5ebc 4cd8 2a3b 0e58 0db8 2039 36b8
000003b0: b660 eb3a c964 09b8 2c2e 263b 303c a4b8
000003c0: 7161 403b 33e7 5cbb b02f 86bb 8b18 b03b
000003d0: fed5 baba 230a 02ba 00b1 1039 3a61 d6bb
000003e0: 23f5 34ba 2f3f dcb9 b0d8 c5ba 5fca 883b
000003f0: 8e9e f5bb 3454 ae3a 3261 2fbb f821 00ba

b4 f4 [10]
-0.003431532 -0.19906247 -0.025878541 0.038831636 0.16144337 -0.00018714665 0.02930571 -0.022037366
0.035406686 -0.0068817753
00000000: 8ee3 60bb 08d7 4bbe 3cff d3bc ec0d 1f3d
00000010: 6951 253e cc3c 44b9 8712 f03c b587 b4bc
00000020: 9a06 113d 8480 e1bb
